assets/mlp_weather_state_dict.pt (torch, 240479 bytes, 7 tensors)

net.0.weight f4 [256, 69]
0.07739115 0.30896494 -0.080832444 0.41341096 0.07469275 -0.5939068 0.4542498 0.11010661
0.12616733 -0.0015394326 -0.0058979494 0.12331849 0.046971556 0.09264071 0.012292264 -0.034174602
0.026531233 0.10944502 0.027105242 0.034744 0.08110479 0.14376849 0.12539728 0.010091865
-0.031995032 0.10248981 0.10413074 0.023303311 0.025832761 0.0031099294 0.16324064 0.08806821
0.07958661 0.10731109 0.039195977 0.06329793 0.009918805 0.041467678 0.08767829 0.01930659
-0.03582815 0.10047491 0.031124437 0.13038889 0.017070558 -0.048926044 0.016881473 0.110996135
0.07568328 -0.008338501 0.05473068 0.13035884 0.10741085 0.017925631 0.021703068 0.14610904
0.13396943 0.052404016 0.06013493 0.016924528 0.12136944 0.09638669 0.056476895 0.081851825
0.07065205 0.02211509 0.04348874 -0.028343879 -0.029725617 -2.8435142 0.04567149 0.11259877
0.42723328 -0.023797547 -0.038494423 0.16419986 -0.030231643 0.036829636 0.015775146 0.10761151
0.055682827 -0.05176825 -0.03435167 0.0019346452 0.08537256 -0.016599767 0.08501732 -0.054338075
0.12857033 0.15560305 0.15123568 0.020344289 -0.017943403 0.13284792 -0.012511225 0.10459387
0.14756286 -0.040495757 -0.049639247 -0.038147923 0.06341724 0.11404528 0.103733175 0.04675572
0.06009957 0.15180923 0.16791403 -0.0108031025 -0.045693222 0.034461617 0.13124365 -0.008377558
-0.04543713 -0.0244046 0.022389056 -0.02136234 0.06429844 -0.059469312 0.13224368 0.110571384
0.14083913 0.014506165 -0.05110606 0.065190576 -0.010578525 0.10212568 0.084864065 -0.06301574
0.009820709 0.00018618345 0.13484325 0.11712407 0.06810697 0.11742774 0.04521641 0.16674732
0.16882743 -0.04955014 0.04036981 -0.3677521 0.06462699 -0.11892459 0.92423034 -0.0153420465
-0.03891276 -0.04048175 0.41294852 0.098240405 0.09620329 0.10447828 0.006148641 0.04352547
0.07010402 0.0770756 0.07983936 0.077521466 0.06990377 0.10656556 0.062613085 -0.013194357
0.39941236 0.049374945 1.7873816e-05 0.01085896 0.0702773 0.079421885 0.07087402 0.069604285
0.06931477 0.03935199 0.109338686 0.1426199 0.10016165 0.06315145 0.053450443 0.08247379
0.3499941 0.07577851 0.089379296 0.097076185 0.0051812525 0.09071132 0.08460276 0.09663026
0.060455065 0.14029512 0.061903592 0.08029161 0.033218574 0.019083997 0.34530643 0.023570277
0.025465181 0.09761483 0.044420686 0.07573979 0.09443418 0.023817372 0.07018485 0.080895826
0.08929736 0.12660398 0.11430391 0.0953034 0.07940975 0.06949063 -0.030493157 0.027813159
-0.13954012 0.080937125 0.11291696 -0.23169307 -0.66599876 -0.13672751 0.014849184 0.13319577
0.036470305 -0.015880486 0.17804624 0.070477486 0.010655299 0.23966126 0.03804006 0.028957436
-0.0058204383 0.23312114 0.07689114 0.1444767 0.072643764 -0.044377815 -0.0075057554 0.06704046
0.094056174 0.207402 0.1229605 0.11787832 0.021107392 0.0027485397 0.07074964 0.08851064
0.090243965 0.030848123 0.081777476 0.03153691 0.12332866 0.049903218 -0.003306554 0.013559976
0.14261276 0.120227575 0.026925983 0.16672128 0.051909212 0.014788239 0.02851251 0.15231411
00000000: 407f 9e3d a730 9e3e 7b8b a5bd 9aaa d33e
00000010: 83f8 983d 470a 18bf 6e93 e83e 937f e13d
00000020: 0232 013e c9c6 c9ba 9643 c1bb 688e fc3d
00000030: 3f65 403d 6aba bd3d 7e65 493c abfa 0bbd
00000040: 0758 d93c b624 e03d d00b de3c b94f 0e3d
00000050: 451a a63d 0c38 133e 2568 003e 5a58 253c
00000060: 390d 03bd 2de6 d13d 7f42 d53d 96e6 be3c
00000070: 3a9f d33c f5cf 4b3b 8e28 273e 1b5d b43d
00000080: 4efe a23d ebc5 db3d f68b 203d 58a2 813d
00000090: 7c82 223c 03da 293d ad90 b33d db28 9e3c
000000a0: 8ac0 12bd cac5 cd3d adf8 fe3c aa84 053e
000000b0: 8ed7 8b3c ad66 48bd 044b 8a3c f151 e33d
000000c0: d6ff 9a3d 359e 08bc 472d 603d ca7c 053e
000000d0: 38fa db3d c6d8 923c a2ca b13c 9c9d 153e
000000e0: 482f 093e 98a5 563d 0b50 763d 4fa5 8a3c
000000f0: 8a90 f83d 6366 c53d 5154 673d eea1 a73d
00000100: 06b2 903d b52a b53c 4021 323d 6c31 e8bc
00000110: 2383 f3bc 23fc 35c0 0712 3b3d 2f9a e63d
00000120: 52be da3e 13f3 c2bc 54ac 1dbd 0224 283e
00000130: 5aa8 f7bc acda 163d e13a 813c 6c63 dc3d
00000140: ad13 643d f20a 54bd 56b4 0cbd ec93 fd3a
00000150: cfd7 ae3d 3cfc 87bc 901d ae3d 9a91 5ebd
00000160: f1a7 033e 6856 1f3e 87dd 1a3e 11a9 a63c
00000170: 0bfe 92bc 4909 083e e2fb 4cbc 5035 d63d
00000180: b81a 173e e1de 25bd 8652 4bbd ff40 1cbd
00000190: e6e0 813d 9290 e93d 0f72 d43d ed82 3f3d
000001a0: f72a 763d e173 1b3e a8f1 2b3e 7fff 30bc
000001b0: d128 3bbd a027 0d3d bc64 063e 0642 09bc
000001c0: 491c 3abd 28ec c7bc 4169 b73c 1300 afbc
000001d0: e7ae 833d 1896 73bd e36a 073e 4073 e23d
000001e0: 2238 103e 44ab 6d3c 9754 51bd a382 853d
000001f0: 8d51 2dbc 4527 d13d 36cd ad3d 650e 81bd
00000200: 0ae7 203c 3d3a 4339 5914 0a3e bfde ef3d
00000210: ab7b 8b3d f47d f03d d834 393d cfbf 2a3e
00000220: 19e1 2c3e 16f5 4abd d05a 253d 014a bcbe
00000230: 285b 843d bc8e f3bd 5c9a 6c3f 355d 7bbc
00000240: fc62 1fbd 31d0 25bd fd6d d33e 4432 c93d
00000250: 3b06 c53d b5f8 d53d 8a7a c93b c347 323d
00000260: b292 8f3d d0d9 9d3d d282 a33d 93c3 9e3d
00000270: b529 8f3d 0b3f da3d 4a3b 803d 252d 58bc
00000280: c77f cc3e 623d 4a3d baef 9537 c8e9 313c
00000290: 8ced 8f3d f1a7 a23d 6626 913d b18c 8e3d
000002a0: e7f4 8d3d 8d2f 213d f6ec df3d f30a 123e
000002b0: 8d21 cd3d 8c55 813d daee 5a3d 05e8 a83d
000002c0: 6d32 b33e c331 9b3d 7e0c b73d e1cf c63d
000002d0: 7fc7 a93b dbc6 b93d 3644 ad3d 16e6 c53d
000002e0: bb9f 773d 86a9 0f3e 9f8e 7d3d ed6f a43d
000002f0: 3310 083d 0b56 9c3c 01cc b03e 7416 c13c
00000300: 5b9c d03c 49ea c73d 77f2 353d 771d 9b3d
00000310: b566 c13d a61c c33c 13bd 8f3d b6ac a53d
00000320: 89e1 b63d 79a4 013e 2b18 ea3d 6e2e c33d
00000330: 94a1 a23d 1a51 8e3d c9cc f9bc 6cd8 e33c
00000340: 9be3 0ebe 5dc2 a53d 0241 e73d f340 6dbe
00000350: e57e 2abf 4c02 0cbe fe49 733c 7964 083e
00000360: e361 153d cb17 82bc c151 363e 8056 903d
00000370: 9093 2e3c c369 753e e5cf 1b3d 2538 ed3c
00000380: 60b9 bebb 4fb7 6e3e 1a79 9d3d b3f1 133e
00000390: 41c6 943d 83c5 35bd d7f2 f5bb 824c 893d
000003a0: 86a0 c03d 3161 543e b7d2 fb3d 306a f13d
000003b0: 69e9 ac3c d820 343b 30e5 903d 1145 b53d
000003c0: d4d1 b83d 34b5 fc3c f37a a73d d92c 013d
000003d0: bd93 fc3d 5167 4c3d c5b2 58bb a92a 5e3c
000003e0: 1409 123e e039 f63d e193 dc3c fcb8 2a3e
000003f0: c19e 543d 5f4a 723c 1193 e93c 3bf8 1b3e

net.0.bias f4 [256]
-1.087333 -0.517308 -1.0223689 -0.9334415 -0.7549591 -0.54042494 -0.4023531 -1.0467778
-1.0626394 -0.35002843 -0.6505422 -0.9631896 -0.57628846 -0.9707197 -0.9183335 -0.8458487
-0.8984809 -0.55299985 -1.0010242 -0.8790527 -0.5101282 -1.1202554 -1.06714 -0.9477209
-0.8186907 -0.66486657 -0.7608662 -0.71730477 -0.7843488 -0.77603066 -0.8863115 -0.73164576
-1.0530531 -0.749743 -1.0139971 -0.9588626 -0.2806818 -0.9908371 -0.6542952 -0.8890309
-0.79970753 -0.35101184 -0.808281 -0.65084237 -1.0427144 -0.52935076 -0.51709306 -0.69459814
-0.858755 -0.68348134 -1.0359741 -0.94799876 -0.96074593 -0.46495098 -0.69515276 -0.37229824
-0.87895936 -0.9519962 -0.5140445 -0.9082679 -0.77694386 -0.80484885 -0.51610816 -0.9028323
-1.0918558 -0.67253476 -0.6085976 -1.0161119 -1.0191144 -0.78281903 -0.87534136 -0.5470291
-0.4561474 -0.8993452 -0.9937026 -0.8221265 -0.69276726 -1.0469866 -1.0865492 -0.6624426
-1.0850456 -0.69178104 -0.9063929 -0.9267718 -0.94721466 -0.65482134 -0.9977207 -0.42309
-0.8584271 -0.5438131 -0.95604986 -0.44125104 -0.37465677 -0.6734506 -0.8107733 -1.1861293
-0.64040893 -0.9488011 -0.93582374 -0.3359569 -0.8402191 -0.9653933 -0.74279374 -0.19016583
-0.6272865 -0.86084396 -0.90585613 -0.52936184 -0.87494606 -0.79091674 -0.89914227 -0.6123403
-0.49972045 -0.7966537 -0.776014 -0.9945702 -0.44987124 -0.21441133 -0.41448158 -0.37960944
-1.2329754 -1.1177597 -1.011877 -0.77064425 -0.49664873 -1.0179985 -0.75057524 -0.8520202
-0.67292696 -0.6537794 -0.8545323 -0.6284626 -0.28217253 -0.6099882 -0.72833663 -0.741218
-0.53215206 -0.99350816 -0.8306957 -0.9450988 -0.7647459 -0.8657265 -0.56882447 -0.8057525
-0.7406277 -0.65081406 -0.48440957 -0.6655513 -0.6096051 -1.3560097 -0.46966648 -0.969236
-1.3095305 -0.15881991 -0.41269416 -0.43742722 -0.8879364 -0.8857614 -0.72947955 -0.3163379
-0.92071086 -0.50202143 -0.527708 -0.7167406 -0.90046096 -0.9228714 -0.85389143 -0.5616321
-0.74706256 -0.71476847 -0.7097498 -0.8457994 -0.9298144 -0.65265125 -0.88732666 -0.8517636
-0.7226318 -1.0788875 -0.7088936 -0.051515967 -0.8056373 -0.73002666 -0.7392547 -0.51220304
-0.8316658 -0.48973417 -0.6395123 -0.31491062 -0.8967759 -1.137597 -0.67983913 -0.30943063
-0.56166637 -0.8952822 -0.8198254 -1.0152813 -0.6401006 -0.5822445 -1.1523279 -0.7261354
-1.0123224 -1.0348825 -0.80621105 -1.5792384 -0.5299749 -0.43015137 -0.8226339 -0.87884665
-0.9552246 -0.6029701 -0.25659975 -1.1690716 -0.9859892 -0.87470746 -0.62239283 -1.2892785
-0.7873482 -0.65667975 -0.7365186 -0.94724166 -0.4733267 -0.1817685 -1.0026182 -0.687326
-0.57755774 -0.93860525 -1.2228628 -0.8806141 -1.1751512 -1.0746952 -0.90101486 -0.684048
-0.6874976 -1.0927736 -0.65693927 -1.0171714 -0.6629298 -1.0338138 -0.9754643 -0.6283668
-1.1259164 -0.6092574 -0.7982928 -1.0915804 -0.95669043 -0.5360878 -0.8308529 -0.5824073
-0.40910086 -0.69580716 -1.1826108 -0.96963185 -0.8298696 -0.9664813 -0.8843745 -0.79238284
00000000: ba2d 8bbf 4c6e 04bf fcdc 82bf 06f6 6ebf
00000010: 0045 41bf 4a59 0abf 3a01 cebe d1fc 85bf
00000020: 9104 88bf ed36 b3be ef89 26bf 9893 76bf
00000030: a487 13bf 1681 78bf e717 6bbf 8a89 58bf
00000040: d802 66bf 6691 0dbf 9021 80bf 9909 61bf
00000050: c397 02bf 8764 8fbf 0b98 88bf d69d 72bf
00000060: b795 51bf b234 2abf 21c8 42bf 49a1 37bf
00000070: 15cb 48bf f2a9 46bf 4fe5 62bf 234d 3bbf
00000080: 72ca 86bf 28ef 3fbf a8ca 81bf 0578 75bf
00000090: 86b5 8fbe 80a7 7dbf e47f 27bf 8797 63bf
000000a0: a2b9 4cbf d3b7 b3be 81eb 4ebf 9b9d 26bf
000000b0: aa77 85bf 8883 07bf 3660 04bf 2fd1 31bf
000000c0: 5ed7 5bbf a2f8 2ebf cd9a 84bf 0cb0 72bf
000000d0: 72f3 75bf 0e0e eebe 88f5 31bf e09d bebe
000000e0: 7b03 61bf 06b6 73bf 6c98 03bf 3f84 68bf
000000f0: cbe5 46bf 930a 4ebf aa1f 04bf 0520 67bf
00000100: eec1 8bbf 3d2b 2cbf 0dcd 1bbf f40f 82bf
00000110: 5772 82bf d466 48bf 5f16 60bf 190a 0cbf
00000120: 278c e9be 7d3b 66bf 4b63 7ebf e276 52bf
00000130: 3259 31bf a803 86bf 0b14 8bbf d795 29bf
00000140: c6e2 8abf 9018 31bf 5d09 68bf eb40 6dbf
00000150: a97c 72bf 5fa2 27bf a06a 7fbf 419f d8be
00000160: e1c1 5bbf 5637 0bbf afbf 74bf a8eb e1be
00000170: 03d3 bfbe 4267 2cbf d78e 4fbf 16d3 97bf
00000180: d7f1 23bf a1e4 72bf 2592 6fbf 8b02 acbe
00000190: 9918 57bf 0424 77bf bb27 3ebf d5ba 42be
000001a0: d995 20bf 4560 5cbf 30e6 67bf 4284 07bf
000001b0: 77fc 5fbf 8579 4abf 302e 66bf 55c2 1cbf
000001c0: 5cdb ffbe 7ff1 4bbf daa8 46bf 279c 7ebf
000001d0: 8655 e6be a58e 5bbe ee36 d4be 2b5c c2be
000001e0: 23d2 9dbf c012 8fbf 2f85 81bf f148 45bf
000001f0: be48 febe c64d 82bf b325 40bf ff1d 5abf
00000200: f144 2cbf 165e 27bf a1c2 5abf ede2 20bf
00000210: eb78 90be 3028 1cbf 4574 3abf 76c0 3dbf
00000220: 1e3b 08bf 8d56 7ebf 79a8 54bf fff1 71bf
00000230: 63c6 43bf 40a0 5dbf 7b9e 11bf cc45 4ebf
00000240: c799 3dbf c09b 26bf 8804 f8be 9261 2abf
00000250: 140f 1cbf ba91 adbf 2078 f0be da1f 78bf
00000260: b29e a7bf b0a1 22be a64c d3be 76f6 dfbe
00000270: cd4f 63bf 42c1 62bf 2cbf 3abf 0bf7 a1be
00000280: b5b3 6bbf 7a84 00bf df17 07bf 507c 37bf
00000290: 9c84 66bf 4d41 6cbf a198 5abf 1fc7 0fbf
000002a0: 7e3f 3fbf 11fb 36bf 2ab2 35bf 4f86 58bf
000002b0: 5108 6ebf 2714 27bf d727 63bf 2e0d 5abf
000002c0: 66fe 38bf fc18 8abf 0d7a 35bf 6802 53bd
000002d0: 3f3e 4ebf 07e3 3abf cc3f 3dbf bd1f 03bf
000002e0: 0de8 54bf 70be fabe 14b7 23bf f73b a1be
000002f0: 1b93 65bf c79c 91bf f009 2ebf b16d 9ebe
00000300: 5ec9 0fbf 3731 65bf 14e0 51bf bdf4 81bf
00000310: a2dd 23bf fa0d 15bf 7b7f 93bf 02e4 39bf
00000320: c893 81bf 0877 84bf d963 4ebf 7c24 cabf
00000330: 6fac 07bf cd3c dcbe 2398 52bf 18fc 60bf
00000340: 9989 74bf 405c 1abf 0b61 83be 23a4 95bf
00000350: ca69 7cbf d4ec 5fbf 2355 1fbf 1407 a5bf
00000360: a78f 49bf 2a1c 28bf 7c8c 3cbf 6e7e 72bf
00000370: e157 f2be 8621 3abe cb55 80bf 99f4 2fbf
00000380: d3da 13bf 6f48 70bf c586 9cbf ed6f 61bf
00000390: 5b6b 96bf 9d8f 89bf e9a8 66bf c51d 2fbf
000003a0: d8ff 2fbf 01e0 8bbf 2c2d 28bf ac32 82bf
000003b0: c4b5 29bf 0354 84bf 07b8 79bf a6dc 20bf
000003c0: 071e 90bf 4bf8 1bbf eb5c 4cbf e8b8 8bbf
000003d0: aae9 74bf 0d3d 09bf c7b2 54bf a518 15bf
000003e0: ab75 d1be 6b20 32bf ca5f 97bf cb39 78bf
000003f0: 5672 54bf 526b 77bf 5e66 62bf 9ad9 4abf

net.3.weight f4 [128, 256]
-0.019814866 0.11909075 -0.13267456 -0.2197228 0.028621128 -0.008490183 -0.028647713 -0.012512503
-0.20726551 -0.055762704 -0.019033419 -0.03117401 -0.033218306 -0.07469068 -0.07847696 -0.0719606
-0.086193725 -0.09127953 -0.34999323 0.17677428 -1.4157952 0.14942 -0.24127805 0.3012757
-0.07382176 0.05199093 -0.11637187 0.111316584 -0.012109446 -0.019172681 0.11697113 0.065310165
-0.06931835 0.050003454 -0.0004321381 -1.0927033 0.0391894 -0.09895794 0.0154399965 0.23356302
-0.07299496 -0.04555699 -0.104463205 -0.00031856616 -0.18333872 -0.054902494 -0.054488245 -0.21566027
-0.02608362 0.014843817 0.14400092 -0.011179945 -0.09031387 -0.019342551 -0.21999237 -0.04179245
0.0829498 -0.00016290152 -0.021187441 0.11152034 -0.15584965 0.024659328 0.05136524 -0.10856879
0.18399826 0.0095448475 0.09261312 -0.10226027 0.018533254 -0.51729727 -0.09235241 -0.028624108
-0.04571678 -0.033565104 0.0016022733 0.0508321 0.0033153968 -0.040586565 -1.2608614 0.037806477
-0.06591346 0.026952554 -0.10912272 0.07922918 0.14497653 -0.08335573 -0.094253294 0.008098526
-0.029940635 -0.48086867 -0.146195 0.015315895 -0.010939736 0.09894027 -1.067449 -0.005021612
-0.015912512 0.038561802 -0.10247308 0.04016934 0.015949462 -0.07208656 0.0907516 0.008604149
-0.0028044295 0.0031200494 -0.079945825 0.046720494 -0.119294174 0.066131815 0.06822987 -0.03930365
-1.1651982 -0.03979315 -0.090341985 -1.2961748 -0.029156208 0.0058528683 -0.0139416335 -0.048502337
-0.20148627 0.17288128 -0.01604274 -0.0450608 0.13097127 -1.2196242 -0.0069854255 -0.012098594
-0.056161802 -0.12734072 -0.03847016 -0.11372728 -0.028920464 0.024240391 0.081431404 -0.04177346
-0.050706908 -0.23273638 -0.022311058 -0.36087713 0.03262009 -0.23581254 0.122562826 -0.0074571525
-0.0022872842 -0.048022013 0.014211507 -0.08705882 0.06836896 0.10897477 -0.0019212833 0.03004882
-0.15420973 0.062474694 0.046871834 -0.030132089 -0.021004139 0.11964044 -0.042501897 -0.06264925
0.11707633 0.13671713 -0.4397646 0.003601614 -0.054253872 0.061860975 -0.036985513 -0.03297914
0.032863576 0.06645548 -0.045553934 -0.1314966 -1.3689585 -0.13790928 0.043214086 -0.04859822
-0.10014729 0.07449936 -0.18679355 0.019492157 -0.21504094 0.07637695 -0.04066308 -0.004808025
-0.038584307 0.1214109 -0.0047093206 0.066922665 -0.014393742 -0.015154596 0.04183059 -0.036158044
-0.21373057 0.16195431 0.035344977 0.2730075 -0.0972641 -0.04681605 -0.08073646 0.07309704
0.033466946 -0.21385981 -0.00020497089 -0.1983917 0.028669642 -0.31018752 0.14594333 -0.134886
-0.132823 -0.23717396 0.002282815 -0.0360134 -0.06344525 -0.15220185 0.047013983 -0.23480886
-0.020471431 -0.00062378624 0.11189851 -0.10518783 -0.017277736 0.010971328 0.04214964 -0.08198121
-0.16659361 -0.23682481 -0.016710885 -0.058606166 0.12258443 -0.6180683 0.09148931 0.115423806
0.036344096 -0.12196867 -0.91348696 -0.2083628 -0.012061889 0.058502574 -0.0618118 -0.08460778
0.2499398 -0.023865288 -0.08501496 0.1574869 0.130245 -0.07075853 -0.04502265 0.116925836
0.03907959 0.0034448684 -0.38046974 -0.010351041 0.09960958 -0.09726977 0.019484237 -0.40583405
00000000: c952 a2bc dae5 f33d d7db 07be 04ff 60be
00000010: db76 ea3c 691a 0bbc 9cae eabc 3e01 4dbc
00000020: 693d 54be 6f67 64bd f9eb 9bbc a360 ffbc
00000030: eb0f 08bd 6df7 98bd 87b8 a0bd 1460 93bd
00000040: 5686 b0bd c3f0 babd 5032 b3be 5104 353e
00000050: c738 b5bf 8e01 193e 9811 77be cf40 9a3e
00000060: dd2f 97bd 71f4 543d 6054 eebd f3f9 e33d
00000070: b366 46bc 0710 9dbc 8f8e ef3d 56c1 853d
00000080: c7f6 8dbd 6cd0 4c3d 9890 e2b9 b4dd 8bbf
00000090: 1085 203d 76aa cabd 0af8 7c3c 252b 6f3e
000000a0: 627e 95bd f799 3abd cef0 d5bd 3a05 a7b9
000000b0: 25bd 3bbe 70e1 60bd 112f 5fbd 0cd6 5cbe
000000c0: 51ad d5bc 7b33 733c fa74 133e 172c 37bc
000000d0: 7af6 b8bd 4574 9ebc ae45 61be 8f2e 2bbd
000000e0: 96e1 a93d 8bd0 2ab9 4991 adbc c764 e43d
000000f0: 0d97 1fbe 5c02 ca3c 5c64 523d 5059 debd
00000100: 0a6a 3c3e fe61 1c3c f3ab bd3d d56d d1bd
00000110: 0dd3 973c 986d 04bf 4323 bdbd 1b7d eabc
00000120: 8541 3bbd 907b 09bd 5f03 d23a 5235 503d
00000130: 2147 593b 193e 26bd e863 a1bf f7da 1a3d
00000140: a3fd 86bd 9acb dc3c bc7b dfbd e942 a23d
00000150: ba74 143e 69b6 aabd df07 c1bd aeaf 043c
00000160: 1046 f5bc 6b34 f6be 24b4 15be 85ef 7a3c
00000170: 943c 33bc 32a1 ca3d 2ba2 88bf 568c a4bb
00000180: f55a 82bc fbf2 1d3d 68dd d1bd 9b88 243d
00000190: 72a8 823c 1ea2 93bd fadb b93d 6bf8 0c3c
000001a0: 85ca 37bb be79 4c3b a3ba a3bd fd5d 3f3d
000001b0: 8150 f4bd 1e70 873d 1abc 8b3d ddfc 20bd
000001c0: 3725 95bf 24fe 22bd 3805 b9bd 0ee9 a5bf
000001d0: 00d9 eebc 6bc9 bf3b 736b 64bc 63aa 46bd
000001e0: 6b52 4ebe ca07 313e 106c 83bc ac91 38bd
000001f0: 551d 063e a51c 9cbf ffe5 e4bb 2e39 46bc
00000200: eb09 66bd 9b65 02be e392 1dbd d9e9 e8bd
00000210: 9cea ecbc c993 c63c 82c5 a63d a61a 2bbd
00000220: 0cb2 4fbd 7252 6ebe aec5 b6bc e3c4 b8be
00000230: a59c 053d d878 71be 3802 fb3d 215b f4bb
00000240: 43e6 15bb bbb2 44bd 61d7 683c e54b b2bd
00000250: 0605 8c3d 2a2e df3d 92d3 fbba f128 f63c
00000260: 28e9 1dbe 77e5 7f3d aefc 3f3d 92d7 f6bc
00000270: df10 acbc 0c06 f53d 7816 2ebd 404e 80bd
00000280: b7c5 ef3d 93ff 0b3e d328 e1be 0e09 6c3b
00000290: 4f39 5ebd ef61 7d3d 1f7e 17bd 2215 07bd
000002a0: f59b 063d d019 883d c396 3abd 0ba7 06be
000002b0: 083a afbf 1738 0dbe 4101 313d ed0e 47bd
000002c0: 061a cdbd 1f93 983d cf46 3fbe 04ae 9f3c
000002d0: b133 5cbe 856b 9c3d 548e 26bd a38c 9dbb
000002e0: 940a 1ebd 47a6 f83d a550 9abb c00e 893d
000002f0: bbd3 6bbc fc4a 78bc 8e56 2b3d 751a 14bd
00000300: 30dc 5abe 5ad7 253e e5c5 103d a4c7 8b3e
00000310: 6732 c7bd 30c2 3fbd 2859 a5bd e7b3 953d
00000320: a314 093d 11fe 5abe 74ed 56b9 3227 4bbe
00000330: 99dc ea3c e6d0 9ebe 2b72 153e 8e1f 0abe
00000340: c102 08be bbdd 72be 489b 153b c982 13bd
00000350: 95ef 81bd cdda 1bbe bc91 403d bc71 70be
00000360: b4b3 a7bc 9685 23ba 0c2b e53d b86c d7bd
00000370: 0a8a 8dbc 16c1 333c 1aa5 2c3d c4e5 a7bd
00000380: 8497 2abe 3482 72be 44e5 88bc 050d 70bd
00000390: 8c0d fb3d b939 1ebf bf5e bb3d 5163 ec3d
000003a0: 8cdd 143d b6ca f9bd 48da 69bf 0f5d 55be
000003b0: 3b9f 45bc 65a0 6f3d 5f2e 7dbd d846 adbd
000003c0: 38f0 7f3e 2381 c3bc 531c aebd 3f44 213e
000003d0: f25e 053e d9e9 90bd ac69 38bd d076 ef3d
000003e0: ec11 203d 4dc3 613b eecc c2be 6a97 29bc
000003f0: 1c00 cc3d 6035 c7bd 689d 9f3c 7bc9 cfbe

net.3.bias f4 [128]
0.7920926 0.6314732 -0.17573242 0.6779738 -0.044272788 -0.04143177 0.5539183 0.13541512
0.6930367 -0.055059943 -0.057665654 -0.25226286 0.42296305 -0.08058355 0.34115404 0.33017138
0.21200544 0.6457038 0.8530168 1.007617 0.4901422 0.1439975 0.73205215 0.69973975
0.96507865 -0.7608166 0.45636493 -0.06673431 -0.8549188 0.19882517 0.4409833 0.41801032
0.62627035 -0.4319557 0.46612015 -0.33450913 -0.08622229 -0.6498474 0.38778195 -0.40107256
0.28988326 0.66131294 0.75540864 -0.061450556 0.74768627 0.3089944 0.6306815 0.66868633
0.4307926 0.1741395 0.9478874 0.60514414 0.005968229 -0.062083185 0.71939874 -0.059539244
0.46437624 0.34960467 0.38659486 0.57187915 0.09416774 -0.04444641 0.30626017 0.17967965
0.6926687 0.35877103 0.43836254 -0.06731643 0.7115117 0.5773759 0.74460065 -0.058041498
0.72130597 0.12005797 -0.10654281 0.60689884 0.22687607 0.2447689 0.15402097 0.10606664
1.0443687 -0.09711783 0.43014142 0.14979935 -0.036579706 -0.080153115 0.7612755 0.93556947
-0.114634864 0.43700176 -0.04957807 -0.2408706 -0.06082961 0.7039722 0.49889955 0.60312814
0.15109472 0.73210585 -0.033322334 -0.18126434 -0.19615687 0.41112265 0.0890465 -0.06323531
0.64628243 0.032862008 0.6107803 0.57786405 -0.2571931 0.043199398 0.38741496 0.5766203
0.052633844 -0.03585482 0.67830235 -0.07565583 0.056170963 0.44933015 -0.04307924 1.0108232
-0.05657253 0.5623693 0.6850724 -0.8661592 -0.061180234 -0.05417157 0.4770471 0.45327368
00000000: 95c6 4a3f 3aa8 213f 33f3 33be b18f 2d3f
00000010: 6257 35bd 5cb4 29bd 97cd 0d3f 43aa 0a3e
00000020: da6a 313f 8986 61bd d232 6cbd 9928 81be
00000030: 9d8e d83e fd08 a5bd beab ae3e 390c a93e
00000040: f417 593e d84c 253f 4f5f 5a3f 98f9 803f
00000050: ebf3 fa3e 1574 133e c567 3b3f 2522 333f
00000060: 650f 773f e0c4 42bf aaa8 e93e ffab 88bd
00000070: f5db 5abf d398 4b3e 90c8 e13e 7305 d63e
00000080: 4153 203f 4c29 ddbe 4da7 ee3e c844 abbe
00000090: 5095 b0bd 665c 26bf 5b8b c63e 6259 cdbe
000000a0: 946b 943e ce4b 293f 7662 413f 94b3 7bbd
000000b0: 5e68 3f3f 8434 9e3e 5874 213f 072f 2b3f
000000c0: d990 dc3e a051 323e c0a8 723f baea 1a3f
000000d0: 2291 c33b f04a 7ebd 842a 383f 6cdf 73bd
000000e0: b9c2 ed3e 62ff b23e c3ef c53e ac66 123f
000000f0: 04db c03d 700d 36bd 22ce 9c3e f1fd 373e
00000100: bc52 313f d6b0 b73e 0e71 e03e 32dd 89bd
00000110: a125 363f e8ce 133f 269e 3e3f ecbc 6dbd
00000120: 82a7 383f f4e0 f53d 1e33 dabd b95d 1b3f
00000130: 3352 683e b3a4 7a3e acb7 1d3e 7739 d93d
00000140: e0ad 853f b6e5 c6bd 7f3b dc3e 0065 193e
00000150: 9ad4 15bd 5127 a4bd f3e2 423f 7b81 6f3f
00000160: afc5 eabd b2be df3e 6012 4bbd c8a6 76be
00000170: 7828 79bd 8637 343f c36f ff3e 9b66 1a3f
00000180: 93b8 1a3e 4a6b 3b3f 007d 08bd 5c9d 39be
00000190: 59dd 48be ab7e d23e 035e b63d 8481 81bd
000001a0: c472 253f 509a 063d 195c 1c3f e6ee 133f
000001b0: d0ae 83be daf1 303d 415b c63e 639d 133f
000001c0: 9696 573d 81dc 12bd 39a5 2d3f 72f1 9abd
000001d0: 8613 663d 9a0e e63e db73 30bd a862 813f
000001e0: 99b8 67bd 6ff7 0f3f e860 2f3f 9cbc 5dbf
000001f0: 2098 7abd 02e3 5dbd 843f f43e 7d13 e83e

net.6.weight f4 [64, 128]
0.0027573938 -0.04710195 0.0045052487 0.033860166 -0.004700192 0.015003883 -0.008193243 0.01732665
-0.0033061577 0.007676678 -0.011568575 0.016169693 -0.076284856 -0.02467038 -0.011925219 0.014985214
0.012593813 0.038543947 -0.00021713659 0.012726543 -0.009533913 0.08413762 0.016059453 -0.024394482
0.053162463 -0.016363997 0.028207174 0.0055281757 0.023633877 -0.037939083 0.051624317 0.0077158385
-0.006172681 0.008394219 0.008662485 -0.022129739 -0.0108034685 -0.024356032 0.00080286385 0.040772486
-0.0043965094 0.003994997 0.050828688 -0.00952911 0.037686102 0.052956037 0.00567604 0.01713891
0.0474131 0.057291944 -0.010173504 0.048618883 0.03218846 0.0219231 0.009885661 -0.012731942
0.019984841 0.031734426 -0.02699431 0.06541755 0.03337496 0.015892962 0.012802928 -0.04785023
0.02992396 0.05585031 0.015311916 -0.038778678 0.029292744 -0.013291885 0.057942018 -0.002692878
0.032258444 0.032671068 -0.015123031 -0.008463308 0.013622645 0.036674947 -0.0074437545 0.051772233
0.011465623 -0.012750612 -0.0047784215 -0.02761286 0.0089917695 -0.025000114 0.04040226 -0.007637017
1.2480506 0.04971837 0.024881069 -0.0066013206 0.040715378 0.0019532267 -0.026647205 -0.0014308672
-0.018158568 -0.003069398 -0.005684538 0.058525857 -0.00057757506 0.061588533 0.01325101 -0.0051639285
0.024774028 0.04446473 0.024932843 0.0501265 0.08021476 0.032725092 0.014703554 0.03423933
0.035920456 -0.00803579 0.007633533 -0.020025369 -0.03622289 0.04840359 -0.03951789 0.008314967
-0.026204858 0.0129833715 0.007894393 -0.0035324765 0.03440854 -0.011550536 0.022620518 0.03414414
0.024199061 0.012859098 0.01941528 0.054353178 0.015120723 0.0064260135 0.0577798 0.03421973
0.043409124 -0.016785398 -0.022775678 0.026132435 -0.05466986 -0.00085560844 -0.031327356 0.012231484
0.034510322 0.034795187 0.031832516 0.037105434 0.033945728 0.063911654 -0.020374378 -0.03727052
0.04229403 -0.0037054939 -0.001326004 0.013660722 0.026418902 -0.021886151 0.049618185 0.047307387
-0.0032050177 0.009441815 0.018058905 -0.030696979 0.03135461 0.034880843 0.055852424 0.058886126
-0.004079615 0.0041970084 0.033070784 -0.04214893 0.03579829 -0.005749302 0.005218672 -0.0115665905
0.029812725 0.10897649 0.01674102 0.007284942 0.04149973 -0.019619074 0.0025234383 -0.02032091
0.007201102 0.063517004 -0.010104215 0.015466797 -0.0033075833 0.031122126 -0.0026924496 -0.053694032
0.044349954 0.0333356 0.00813996 -0.043748084 0.018122977 0.00588647 0.0065981136 0.034818664
0.017347803 0.05775626 -0.026531896 0.026033888 -0.0055476003 0.025181876 -0.006004453 0.01946028
0.019499443 0.031086152 0.028083986 -0.035834756 0.0015596455 0.014521172 0.023906475 0.033647195
1.2168779 -0.0014862624 0.08436058 -0.003122802 0.047879606 0.041072898 -0.0193191 -0.010538946
0.011207887 -0.0036095069 0.01957892 0.05097774 0.022180192 0.042015985 0.020483576 0.019273156
-0.018482814 0.0016164681 0.030087855 0.022429388 0.07716286 0.031001795 0.046690956 0.022674825
0.007719603 -0.031354934 -0.009343636 -0.039362453 -0.01181529 0.008688208 -0.03810757 -0.0052136118
-0.020646282 -0.0019241252 -0.008649766 0.0010263749 -0.022223182 -0.050026268 0.049400978 0.053849645
00000000: 64b5 343b f9ed 40bd c4a0 933b f5b0 0a3d
00000010: 1104 9abb d9d2 753c f43c 06bc 9ef0 8d3c
00000020: 1fac 58bb a48c fb3b 1f8a 3dbc 4e76 843c
00000030: 3c3b 9cbd 8919 cabc fe61 43bc 8b84 753c
00000040: 4856 4e3c 42e0 1d3d 29af 63b9 fd82 503c
00000050: 2134 1cbc 5850 ac3d 1d8f 833c f0d6 c7bc
00000060: e2c0 593d ca0d 86bc bb12 e73c b325 b53b
00000070: d59b c13c 0366 1bbd 0574 533d 25d5 fc3b
00000080: 3444 cabb e887 093c 18ed 0d3c 6d49 b5bc
00000090: 0801 31bc 4d86 c7bc 4877 523a 0d01 273d
000000a0: 9810 90bb 77e8 823b be31 503d fc1f 1cbc
000000b0: be5c 1a3d 6ee8 583d 13fe b93b e666 8c3c
000000c0: 3d34 423d f5aa 6a3d c5ae 26bc 9824 473d
000000d0: 0cd8 033d 1398 b33c 78f7 213c a399 50bc
000000e0: 40b7 a33c f5fb 013d 2c23 ddbc a3f9 853d
000000f0: 2fb4 083d f531 823c 5fc3 513c 9afe 43bd
00000100: 1823 f53c 4bc3 643d d5de 7a3c 64d6 1ebd
00000110: 56f7 ef3c 35c6 59bc 9c54 6d3d ff7a 30bb
00000120: 6e21 043d 19d2 053d 97c6 77bc b0a9 0abc
00000130: 8431 5f3c 7838 163d bdea f3bb 1f0f 543d
00000140: 4fda 3b3c f1e7 50bc 4e94 9cbb 5d34 e2bc
00000150: 3752 133c 0acd ccbc d77c 253d f13f fabb
00000160: 1fc0 9f3f 7da5 4b3d 62d3 cb3c e44f d8bb
00000170: 2bc5 263d b501 003b 3d4b dabc f08b bbba
00000180: 47c1 94bc f427 49bb 5c45 babb cfb8 6f3d
00000190: 6868 17ba 4244 7c3d c41a 593c 2c36 a9bb
000001a0: e7f2 ca3c a620 363d f63f cc3c 7251 4d3d
000001b0: a347 a43d bf0a 063d 2de7 703c 8a3e 0c3d
000001c0: 5421 133d 8ca8 03bc b722 fa3b 3e0c a4bc
000001d0: 745e 14bd d842 463d 83dd 21bd 803b 083c
000001e0: 92ab d6bc 35b8 543c 7c57 013c 1f81 67bb
000001f0: f8ef 0c3d 763e 3dbc aa4e b93c bada 0b3d
00000200: 1c3d c63c f7ae 523c cb0c 9f3c 70a1 5e3d
00000210: e9bc 773c 4f91 d23b 83aa 6c3d fd29 0c3d
00000220: c4cd 313d 8881 89bc 0f94 babc b013 d63c
00000230: 81ed 5fbd e94a 60ba 1d51 00bd 9066 483c
00000240: b25a 0d3d 6685 0e3d d062 023d defb 173d
00000250: ad0a 0b3d 1de4 823d 2be8 a6bc f9a8 18bd
00000260: 813c 2d3d dfd7 72bb 50cd adba 39d1 5f3c
00000270: 746c d83c 964a b3bc 703c 4b3d 64c5 413d
00000280: 460b 52bb d8b1 1a3c 45f0 933c 3b78 fbbc
00000290: b16d 003d 37df 0e3d 83c5 643d 9432 713d
000002a0: 4bae 85bb 0f87 893b 3b75 073d 5ba4 2cbd
000002b0: 3aa1 123d a464 bcbb 6501 ab3b cc81 3dbc
000002c0: d139 f43c 112f df3d 7724 893c 86b6 ee3b
000002d0: 9ffb 293d 2eb8 a0bc 4560 253b 0978 a6bc
000002e0: 39f7 eb3b 3415 823d 268c 25bc 7368 7d3c
000002f0: 0ac4 58bb d4f3 fe3c cf73 30bb 46ee 5bbd
00000300: 4ca8 353d e98a 083d 775d 053c 3131 33bd
00000310: a376 943c 4ae3 c03b fd34 d83b 049e 0e3d
00000320: fb1c 8e3c d491 6c3d 6b59 d9bc 0545 d53c
00000330: a5c8 b5bb 394a ce3c 01c1 c4bb 2a6b 9f3c
00000340: 4cbd 9f3c 63a8 fe3c 6310 e63c 77c7 12bd
00000350: 056d cc3a 36ea 6d3c 83d7 c33c a4d1 093d
00000360: a8c2 9b3f b1ce c2ba 3dc5 ac3d eca7 4cbb
00000370: 681d 443d 0e3c 283d 1743 9ebc 8bab 2cbc
00000380: 49a1 373c 7a8d 6cbb f963 a03c 09ce 503d
00000390: 3cb3 b53c f418 2c3d 2ccd a73c bde2 9d3c
000003a0: 4569 97bc abdf d33a ce7a f63c d6bd b73c
000003b0: 9007 9e3d 7af7 fd3c 043f 3f3d 8ec0 b93c
000003c0: b9f4 fc3b 086e 00bd 0d16 19bc 863a 21bd
000003d0: eb94 41bc fc58 0e3c af16 1cbd f2d6 aabb
000003e0: 6422 a9bc ee32 fcba c0b7 0dbc 6d87 863a
000003f0: 640d b6bc 58e8 4cbd ae58 4a3d 7291 5c3d

net.6.bias f4 [64]
1.8268006 1.7621996 1.8581018 0.57956636 1.7225126 1.8242592 1.8608612 1.893147
1.7621446 0.3009809 1.8004025 0.77508223 0.823131 1.8386409 0.54914486 1.7237167
1.8986893 0.6506696 0.6011277 1.8030181 1.6871749 -0.3341789 0.8391574 1.7551972
1.7208985 1.776281 0.5888919 1.9890286 1.9392688 0.46480078 0.7091199 1.7396622
-1.8376852 -0.6354324 1.8855819 1.7506747 -0.47068995 0.67358565 -0.3265923 -0.07941252
1.708978 0.63282806 1.8614703 1.779305 1.7770648 -0.08639823 1.843478 0.12513573
1.7641748 1.8860542 0.8706837 0.29714143 1.3299983 -1.6630926 1.8282503 1.7673755
1.8397404 1.7807406 0.06835274 -0.06713428 1.890948 2.0011325 0.90950996 1.8558078
00000000: 9ad4 e93f c28f e13f 48d6 ed3f 765e 143f
00000010: 4b7b dc3f 5381 e93f b330 ee3f a452 f23f
00000020: f48d e13f 2b1a 9a3e 9773 e63f ca6b 463f
00000030: b7b8 523f 9658 eb3f c294 0c3f c0a2 dc3f
00000040: 4008 f33f 4892 263f 81e3 193f 4cc9 e63f
00000050: 59f5 d73f 7f19 abbe 05d3 563f 4daa e03f
00000060: 6746 dc3f 2d5d e33f 9fc1 163f 7d98 fe3f
00000070: f639 f83f 5efa ed3e e288 353f 40ad de3f
00000080: 4539 ebbf b3ab 22bf bf5a f13f 1c16 e03f
00000090: 46fe f0be 1c70 2c3f 1b37 a7be 08a3 a2bd
000000a0: cbbf da3f 0501 223f a944 ee3f 44c0 e33f
000000b0: dc76 e33f 8ef1 b0bd 16f7 eb3f 9523 003e
000000c0: 7bd0 e13f 396a f13f 21e5 5e3f ec22 983e
000000d0: 623d aa3f 38e0 d4bf 1b04 ea3f 5c39 e23f
000000e0: 9d7c eb3f 4fef e33f 85fc 8b3d b37d 89bd
000000f0: 960a f23f 8e12 0040 a5d5 683f 1c8b ed3f

net.8.weight f4 [1, 64]
0.45092073 0.395484 0.46622208 -0.759413 0.35663223 0.48456836 0.5300751 0.52124983
0.3914537 -0.38743457 0.4170631 -0.4581719 -0.7778216 0.51276565 -0.6596768 0.3603068
0.6314441 -0.3241192 -0.7335165 0.87132454 0.3464155 -0.29787374 -0.5624073 0.38033786
0.38297656 0.39268014 -0.55001026 0.800651 0.56605655 -0.5161175 -0.5476849 0.38367566
-1.1622609 0.85800123 0.72926366 0.37650496 -0.52680445 -0.6969667 0.62934875 -0.015775468
0.35632154 -0.6323588 0.47273576 0.4107571 0.38577947 0.25991768 0.46074364 0.29389578
0.461533 0.61681855 -0.5151609 -0.6036888 0.8577613 -0.8372236 0.44754398 0.37726057
0.511375 0.4086151 0.33479324 -0.36654136 0.5067997 0.72196513 -0.6199378 0.46148884
00000000: 15df e63e e17c ca3e a9b4 ee3e e468 42bf
00000010: 8098 b63e 5819 f83e 00b3 073f a170 053f
00000020: 9f6c c83e d35d c6be 4b89 d53e 8295 eabe
00000030: 511f 47bf 9c44 033f 94e0 28bf 227a b83e
00000040: 52a6 213f f4f2 a5be bdc7 3bbf 200f 5f3f
00000050: 5f5d b13e e882 98be edf9 0fbf a5bb c23e
00000060: 8115 c43e 5f0d c93e 79cd 0cbf 77f7 4c3f
00000070: 15e9 103f 4720 04bf 1435 0cbf 2371 c43e
00000080: f7c4 94bf f8a5 5b3f 06b1 3a3f 42c5 c03e
00000090: a8dc 06bf 696c 32bf 001d 213f 8e3b 81bc
000000a0: c76f b63e 44e2 21bf 6c0a f23e c14e d23e
000000b0: e384 c53e ee13 853e 97e6 eb3e 8279 963e
000000c0: 0e4e ec3e d2e7 1d3f 96e1 03bf 598b 1abf
000000d0: 3f96 5b3f 4954 56bf 7c24 e53e 4c28 c13e
000000e0: 79e9 023f 0036 d13e 056a ab3e 4fab bbbe
000000f0: a0bd 013f b5d2 383f 3eb4 1ebf 4448 ec3e
